doc/dc_net.pth (torch, 795252 bytes, 8 tensors)

conv1.weight f4 [12, 3, 3, 3]
000000 d7 dc 2e bd 68 95 c6 3d df cf 98 bd c2 31 31 be
       -0.042691078 0.09696466 -0.07461523 -0.17304137
000010 f7 8e 68 bd fa 9e 74 bd ba 0d 20 3e a5 d8 ee bd
       -0.056776967 -0.059721924 0.15630236 -0.116624154
000020 6b 9c 1c 3e 25 f9 3f bd b5 08 04 3e c4 89 2b 3d
       0.15294044 -0.046868462 0.12893946 0.04187943
000030 6e 3a a2 bd 97 5a b0 3d de 55 84 3c 9f fd 32 3e
       -0.07921301 0.08611029 0.016154226 0.17479561
000040 b8 ed 14 3e c1 47 2a 3e 8e f2 07 bd 2a df 48 3d
       0.14543808 0.16628934 -0.033190303 0.04904095
000050 af 38 cb bd a0 3c 1f be d0 b8 93 bd a1 f1 84 3d
       -0.09922921 -0.1555047 -0.072129846 0.064913996
000060 89 10 44 be da d9 9e 3d a2 89 4a be 8e 8e 2f 3b
       -0.19146933 0.07756396 -0.19779065 0.002678785
000070 47 a8 49 be e6 8f 5d be 41 01 b3 3d 23 cd 41 be
       -0.19693099 -0.21636924 0.087404735 -0.1892591
000080 12 17 b5 3d 6c f2 0a 3e 59 2d c4 3d 7f 92 b8 3d
       0.08842291 0.13569039 0.09578962 0.09012317
000090 23 81 15 3e 5f 90 90 bd 7b 96 39 be 1e 1f 12 3e
       0.14600043 -0.070587866 -0.1812381 0.14269683
0000a0 9a e2 0d 3e c1 e9 55 be 33 35 8b bd 72 fc 4d be
       0.13855973 -0.20889951 -0.06797256 -0.20115831
0000b0 a5 56 54 bd 93 42 21 3e 30 d7 15 3e 7c c1 32 3e
       -0.051840443 0.15748052 0.14632869 0.17456621
0000c0 1c e6 01 3e 28 ff 0e 3c be 5c a3 3d 2a 37 d7 3d
       0.12685436 0.008727826 0.079766735 0.105085686
0000d0 1c d5 8d 3d 89 cd da bd b9 bc 1c 3e 25 aa 90 3d
       0.06925413 -0.10683734 0.15306367 0.070637025
0000e0 5d 7b 0f be 6a 64 17 3e 7e b1 61 bd 45 29 7f be
       -0.14011903 0.14784399 -0.05510091 -0.24918087
0000f0 72 45 d4 3d 58 ef 37 be b0 c2 d8 3c 69 ee 53 be
       0.10364808 -0.17962396 0.026460022 -0.20696415
000100 1a c6 62 bd ac 72 46 be c6 32 99 bd 3d 9b d8 3d
       -0.055364706 -0.19379681 -0.074803874 0.10576484
000110 76 2d 1d 3d 8d 90 bf bd 00 13 00 be 31 f2 4a 3d
       0.038373433 -0.09353743 -0.12507248 0.049547378
000120 48 d0 9c bb f9 6a 93 3d b7 a4 8f 3c f5 49 69 3d
       -0.0047855712 0.07198138 0.017534597 0.056955297
000130 77 e8 75 bd a0 34 f6 bc 2e 1d a2 bd 9a 1f 0b 3d
       -0.06003615 -0.03005439 -0.07915722 0.033965684
000140 90 52 24 3c 4f be 29 be 5d b6 0d be 90 fa 10 be
       0.01002945 -0.16576503 -0.13839097 -0.14158082
000150 7d 43 1c bd b4 db 1b bd 3d 1a 9e bd 9f 21 9e bc
       -0.0381503 -0.038051322 -0.07719848 -0.019303141
000160 45 33 0a be 4b b8 41 3e bd f6 b5 3d 7d 88 fd 3d
       -0.1349612 0.18917958 0.08884952 0.12379549
000170 30 00 9f 3d 21 f5 23 bd 8f 83 8a bd d3 96 c6 bd
       0.07763708 -0.040028695 -0.06763374 -0.09696736
000180 e2 03 2e 3e d9 b3 95 bc b6 24 22 3e 5f ea 03 3e
       0.16993669 -0.018274235 0.15834317 0.12882374
000190 a9 1e aa 3a 48 3e 36 3c 98 cb 1d 3d 2b 49 2a be
       0.0012979108 0.011123247 0.03852424 -0.16629474
0001a0 cd 34 25 bd 77 95 eb bd 26 62 34 be 00 ec d4 3d
       -0.040333558 -0.115031175 -0.17615566 0.10396576
0001b0 4c 40 33 3e 3a 1f ef 3c ab bf d1 3d 50 34 0d be
       0.17504996 0.029189695 0.10241636 -0.13789487
0001c0 88 0d 09 3e c0 13 5b 3e 6a 12 0f be ef 3f 1f 3e
       0.13384068 0.21394253 -0.13971868 0.15551732
0001d0 f5 4d 9b bd 74 49 3d bd 8b 20 2b 3e 27 b8 98 3c
       -0.075832285 -0.04621263 0.16711633 0.018642498
0001e0 b6 79 4a 3e 6a b8 6a bd 00 13 05 3e ae a3 aa bc
       0.19772992 -0.057304777 0.12995529 -0.020830002
0001f0 98 3d f9 3c a8 8c b9 bd 80 d4 29 3e 31 6d 1c be
       0.030424878 -0.09060031 0.16584969 -0.15276028
000200 3a d5 40 bd 88 44 dc 3c c6 0c 17 be d5 29 36 3e
       -0.04707835 0.026888147 -0.14750966 0.17789395
000210 1f 7d cf ba de 09 9a bd be 26 c1 bd 5a 5d 06 3e
       -0.0015830136 -0.07521413 -0.094312176 0.13121548
000220 c9 36 34 3e 74 f6 ab bd db 61 dd 3d 96 a8 01 3e
       0.17599024 -0.083966166 0.1080968 0.12661967
000230 f4 60 f2 bd 53 22 fa bc dc 4a 22 be dc f8 37 3c
       -0.118348986 -0.030533945 -0.15848869 0.011228766
000240 16 52 3d be 27 60 13 3e 2e 71 cb bb dd b4 fb bc
       -0.18488345 0.14392148 -0.0062085604 -0.03072589
000250 07 e2 47 be 2d 74 02 bc b5 6c c1 bd 27 20 2d be
       -0.19519816 -0.007962269 -0.09444562 -0.16906796
000260 aa 50 0d be 9a 38 ed 3d f5 c9 42 3e 1f be 2c 3e
       -0.13800302 0.115830615 0.19022353 0.168694
000270 7c bf 0d be 3c 0e ca bd 2c 0c 54 bd 6d d1 b5 bd
       -0.13842577 -0.09865996 -0.05176942 -0.088778354
000280 a7 e2 22 3e c1 66 0c be 31 41 1a 3d da a0 7d bc
       0.15906774 -0.13711073 0.037659828 -0.0154802445
000290 7b e8 32 be 7b e0 1c 3e 0d 55 f8 3b 6a 9b b0 3d
       -0.17471497 0.15320008 0.007578498 0.08623393
0002a0 39 af f4 3d e0 ef 41 3e a6 8a c9 3d e1 e4 2d 3d
       0.119474836 0.18939161 0.09840898 0.042454604
0002b0 0c 75 9a 3d 2f 0e 74 3c 6e be b3 3d d9 ed a8 3d
       0.07541856 0.01489596 0.08776556 0.08248491
0002c0 ac 39 52 bd 08 dd 29 be c9 ff 12 be 5a 92 eb bd
       -0.05132453 -0.16588223 -0.14355387 -0.11502524
0002d0 d7 64 11 be 67 df fa bd bf 63 41 bd c6 87 41 be
       -0.14198624 -0.12249642 -0.047214266 -0.1889945
0002e0 a0 c5 d0 bd 06 c2 f8 bd dc 8b 4b bd fe d4 1a 3e
       -0.10193944 -0.12146382 -0.049693927 0.15120313
0002f0 27 f6 1a bd 3c 8d bc bc 05 fc 69 bd 95 22 56 3d
       -0.037832405 -0.023016565 -0.05712511 0.052279074
000300 fe 5d 3a bc ee b1 04 be da f8 d3 3d d5 21 89 bb
       -0.011374949 -0.129585 0.10350199 -0.0041849413
000310 f3 30 7c 3d 96 e5 f0 3d d2 00 07 be ee 32 e3 bd
       0.06157012 0.1176254 -0.13183907 -0.110936984
000320 4e 7c 57 3d 2b 54 37 be df 19 7f be 18 ba d4 3d
       0.05260878 -0.17903201 -0.24912213 0.10387057
000330 bc 61 c7 bd 62 45 cc bd 6c db f5 3d db e2 65 3d
       -0.09735438 -0.09974171 0.12004742 0.05612455
000340 f0 39 fd 3d 6f 89 37 bd 51 ec be 3c aa a1 1b be
       0.12364566 -0.0448088 0.023306044 -0.15198389
000350 a9 c1 57 bc 34 3a d6 bd c8 d6 2d 3d 0e 63 63 be
       -0.013168731 -0.1046032 0.04244116 -0.22205755
000360 08 67 ce 3d 6a 55 57 bd d7 cc e6 bb 20 8b 42 bb
       0.100782454 -0.05257169 -0.007043462 -0.0029684976
000370 b9 d5 93 bd 85 1b 17 3e b3 1d 71 bd 25 f9 02 be
       -0.07218499 0.14756592 -0.058866214 -0.12790354
000380 ee cd 3d be 77 9f 36 3e 22 c7 32 3e ac c6 ed bd
       -0.18535587 0.17834269 0.17458776 -0.11610159
000390 b6 0b 0f bd 72 d6 cb 3d 5a f6 0d 3e ff cf 1e 3e
       -0.034923278 0.099530116 0.13863507 0.15509032
0003a0 5c 37 19 3e 33 6d 0f 3e 5d 47 39 be a8 03 8d 3d
       0.14962524 0.140065 -0.18093629 0.06885463
0003b0 fb d1 3c be cd 2c e8 3c 52 05 64 bd e0 82 f0 bc
       -0.18439476 0.028341675 -0.055669136 -0.029359281
0003c0 14 67 0c 3e 4f e4 b5 3d 5c b5 db 3d 0c ce 9d bd
       0.13711196 0.08881437 0.10727951 -0.07705316
0003d0 de 0e 52 bc 31 4f 94 3c 5e 27 65 3d d5 57 13 bb
       -0.012820927 0.018104168 0.055945747 -0.0022482772
0003e0 86 c1 dc bb 6d 31 02 bd 9a b1 88 bc 87 2e c9 3d
       -0.006736937 -0.031785417 -0.01668625 0.098233275
0003f0 7b fe 4c 3c f3 3f 92 3c 9f 4a 07 3e 6d 8f 05 bc
       0.012511845 0.017852759 0.1321206 -0.008151871

conv1.bias f4 [12]
000000 fe bd b7 bc 35 9a 05 be 5f 63 2d 3e 72 20 9d 3e
       -0.022429463 -0.13047107 0.16932438 0.30688816
000010 e0 7e 79 be 38 16 19 3e 64 19 22 3e b3 73 23 3e
       -0.24364805 0.14949882 0.15829998 0.15962104
000020 0a 01 41 be dd 91 41 3e e4 08 0d be e2 59 e1 bc
       -0.18848053 0.18903299 -0.13772923 -0.02750868

fc1.weight f4 [64, 3072]
000000 9a f9 f5 bb 1a fb 10 3c 5f ca 6c bc e6 4b 85 bc
       -0.0075065615 0.00884893 -0.014452546 -0.016271543
000010 17 30 08 3c ae bb 42 3c f8 e5 5c bc 1c 55 0c bc
       0.008312247 0.011885567 -0.013482563 -0.0085652135
000020 1f 11 06 bc 39 6a 31 bc 3b 2b 93 3c dc f3 1a 3c
       -0.008182793 -0.010828548 0.01796495 0.009457555
000030 9d b6 2b 3c fd df 47 bc a5 ad 62 bc fa 71 96 bc
       0.01048055 -0.012199399 -0.013835345 -0.018364895
000040 ed 13 ba bc ab fb 2d bc 6a 97 92 bc 33 f6 3e bc
       -0.02271458 -0.010619084 -0.017894465 -0.011655378
000050 5d 6f 39 bc e1 04 bc bb e6 37 5c 3b b5 bc 1f 3c
       -0.011318055 -0.0057378863 0.0033602654 0.009749581
000060 c6 c6 36 3b d6 ba 9e bc 7f 4f fe 3b a0 d8 60 3c
       0.0027889474 -0.0193762 0.0077609415 0.013723522
000070 b2 f4 3e bc 0d 5b bd bc 75 aa 90 bc 48 ce 89 3a
       -0.01165502 -0.023114705 -0.017659405 0.0010513747
000080 e7 9d ad bc 18 d6 67 3b f6 d3 42 bc 03 f5 51 3c
       -0.021193458 0.0035375413 -0.011891356 0.012814763
000090 61 a0 c2 b5 52 d8 71 3c fe ad 9c bc 04 df d3 39
       -1.4500803e-06 0.014761047 -0.019125935 0.00040411216
0000a0 fe d8 2c 3c 55 7a b6 3b 68 63 0e 3c 2a ba 88 3b
       0.010549782 0.0055687823 0.0086906925 0.004172583
0000b0 ea a1 ee 3b db 1c 36 3c ec 10 50 bc 57 a9 bf bb
       0.0072824853 0.011115278 -0.012699347 -0.0058490443
0000c0 5f 71 b9 ba 29 d0 da 3b 21 5e 6c bc bb 17 42 bc
       -0.0014148167 0.0066776467 -0.014426739 -0.011846478
0000d0 9e a3 91 bb ba 6b 1e bc f8 2c 82 bb 4e 26 94 3a
       -0.0044445535 -0.009669239 -0.003972646 0.001130292
0000e0 d5 a5 af bb 94 44 c3 3c bb 36 5a bc b3 7d d9 3b
       -0.005360345 0.023836412 -0.013318713 0.006637299
0000f0 c3 17 d2 3b d9 93 3f bc 47 19 e2 3a c6 0c c0 3b
       0.006411524 -0.0116929645 0.0017249965 0.0058608977
000100 6e 2f af bc 64 83 fb 3b 63 28 87 bc 29 82 27 3c
       -0.02138492 0.007675575 -0.01649875 0.010223904
000110 a8 18 f7 bb fb 80 48 3c 59 6e 82 3c 7a ac 35 bc
       -0.007540781 0.012237783 0.015921758 -0.011088485
000120 0f 0f 6b 3b 0f 98 12 3c 5b 91 7d bc 74 41 3f bb
       0.003586713 0.008947386 -0.01547655 -0.00291833
000130 df ec 1b 3b 32 3e f9 3b 19 89 d8 3b c8 67 98 bc
       0.002379231 0.007606291 0.00660814 -0.018604174
000140 7c 04 2b b7 5d e7 a4 3a ee 2e 9a 3b 88 cf f8 bb
       -1.0193438e-05 0.0012581159 0.0047053015 -0.007593099
000150 71 06 99 3c 5f b5 49 3c f2 23 cc 3c d5 6a 38 bc
       0.01867983 0.012311309 0.024919484 -0.0112559395
000160 ab c0 90 bb 93 bc a3 3b 49 b4 ca bb bf e7 58 3c
       -0.004417499 0.004996845 -0.0061860424 0.013238846
000170 99 85 ce bb 0d de 8b bb c5 c5 3a bc 3d bc 18 3c
       -0.006302547 -0.004268414 -0.011399691 0.009322223
000180 26 27 a6 ba de 19 44 bc 08 eb 17 3c f0 94 69 3c
       -0.0012676462 -0.011969058 0.009272344 0.014256701
000190 5f 0f 44 ba c9 03 9e 3b dc 55 00 bb ee c8 44 3c
       -0.0007479097 0.0048222286 -0.0019582426 0.012010796
0001a0 fb 7c 0e bc 0a 9f ce bb 48 1c f3 ba 69 6e 78 ba
       -0.00869679 -0.00630558 -0.0018547857 -0.00094769016
0001b0 dd 6d 3a ba 9a 26 6d bc 47 bc bf 3a 83 1e 8c bc
       -0.0007111708 -0.014474535 0.0014628255 -0.017104393
0001c0 86 b7 80 bc 98 00 c5 bb 8f 62 aa 3c 7c 3f 10 3c
       -0.01571251 -0.0060120337 0.02079895 0.008804198
0001d0 e4 2b 58 3b 7a de 86 3b bc 2c 63 3c 6b d9 34 3c
       0.0032985145 0.0041158767 0.013865646 0.011038165
0001e0 36 71 9e 3c e7 3d 86 3b ca 3e 82 b9 28 4b 5b b9
       0.019341093 0.004096735 -0.00024842314 -0.00020913465
0001f0 df ca 66 bb 90 25 e8 bb 3b 0e ab 3b 48 66 15 3c
       -0.0035216135 -0.007084556 0.0052202023 0.009118624
000200 58 63 1b 3c d6 3a 15 3b 07 eb ec b8 b8 cc aa ba
       0.009484135 0.0022770665 -0.00011297134 -0.0013030982
000210 4a b4 8b 3b ef 36 8e 3c 5e 5d 1a 3c 0c d1 57 3c
       0.0042634355 0.017360179 0.009421675 0.013172399
000220 fe aa d3 ba 35 2f 21 3c 27 fc 15 3c 4c c9 8c bb
       -0.0016148982 0.009837915 0.009154356 -0.0042964574
000230 66 6e 12 bb b1 5b 3a 3b cd a2 2e 3c 6b d2 ad bc
       -0.0022343635 0.0028436 0.010658932 -0.0212185
000240 93 29 34 3c 77 dd 8d bc e1 49 b7 bc bf 3b 4b bc
       0.01099624 -0.017317517 -0.022374095 -0.012404381
000250 e0 fc 24 bb ce f8 28 bc f7 4d d7 bb 84 57 c9 bb
       -0.002517514 -0.010313226 -0.0065705734 -0.006144466
000260 e4 6f 44 3c 58 33 b4 bb b0 9e 9f bb 7b e1 12 3a
       0.011989567 -0.0054992847 -0.004871212 0.0005603057
000270 01 df c9 bb 25 f2 60 bc 09 28 09 bc 6c 2d aa bc
       -0.0061606173 -0.013729607 -0.0083713615 -0.020773612
000280 ef 6f 84 3c d2 4d af 3b f7 e8 9b b9 cc b0 4a 3b
       0.016166655 0.005349853 -0.00029737476 0.0030928133
000290 15 3c 1f 3c 27 ae 37 bc f6 7b aa bb 7e 99 a3 3c
       0.0097189145 -0.011210955 -0.0052027656 0.019970652
0002a0 c0 56 f2 bb 4b 54 da 3b b2 69 2c bc fd 59 94 bc
       -0.0073955953 0.0066628805 -0.010523247 -0.018109316
0002b0 8a 29 a8 ba 12 3f 00 bc 48 3d fb 38 f9 2f e8 bc
       -0.0012829762 -0.007827537 0.00011980027 -0.028343188
0002c0 87 1c 9f bc 01 75 b6 bc 20 8f 0d 3b 53 21 ae bc
       -0.019422783 -0.022272589 0.0021600202 -0.021256125
0002d0 39 b4 f9 bb 6a f9 f6 3b 26 50 fd bb e6 44 6e 3b
       -0.007620361 0.0075370567 -0.0077305017 0.0036356985
0002e0 36 a8 a3 3c a4 d8 b8 bb 67 11 35 bc bb 06 f5 3b
       0.01997767 -0.00564106 -0.011051512 0.007477609
0002f0 3a 3a f3 bb 15 42 87 3c c7 1c 8e bc d4 b4 6f bb
       -0.0074227126 0.016511003 -0.017347706 -0.0036576288
000300 c7 0c 3f bc 2a 71 9a 3b dc c3 cd bb 4d 31 0e bc
       -0.011660761 0.0047131972 -0.006279452 -0.008678746
000310 f8 c6 8d bc 01 ee c8 bb e0 6d 18 3c c5 8c b2 3b
       -0.01730679 -0.006131888 0.00930354 0.00544891
000320 b1 24 5d 3c 79 95 9e 3c cc 80 12 bc 0d 4d 88 3c
       0.013497517 0.019358383 -0.00894184 0.016638303
000330 1f 8a ca bb 49 9f e2 3b 9d 95 df bb 68 86 50 bc
       -0.006181016 0.006915961 -0.006823255 -0.012727357
000340 9f 6d 6e bc ec 2e 5a bc fd fa 70 bc 03 b4 14 bc
       -0.014552503 -0.013316851 -0.014708278 -0.009076121
000350 45 ef c7 3b 8a fc c8 bc 97 22 5c 3a 32 ac 6c ba
       0.006101521 -0.024534483 0.0008397488 -0.00090283446
000360 47 21 3e 3c 9a b4 8b bb 25 b8 3d bc e8 a7 76 3c
       0.011604614 -0.0042634727 -0.011579548 0.01505468
000370 c9 60 32 bc 12 58 73 bc e5 b8 74 ba 08 9d 1e 3c
       -0.010887333 -0.014852541 -0.0009335413 0.009680994
000380 bc e3 b2 3b 28 89 e6 ba 3e ba a0 bb bf d9 3b bc
       0.005459277 -0.0017588483 -0.0049050143 -0.011465489
000390 a3 b0 80 bc 6b 0b 4f 3b 11 d1 a1 bc 5d da a2 3b
       -0.015709227 0.00315925 -0.019753011 0.0049698786
0003a0 89 f3 7c bc 21 b2 ef bb e7 46 e8 3b 6c d8 5e bb
       -0.015438923 -0.007314936 0.0070885303 -0.003400351
0003b0 9b 50 53 bc 8a 7b f3 3a 1e 07 cf bc f9 41 a6 bc
       -0.012897636 0.0018576246 -0.025271948 -0.02029513
0003c0 ba ba 9c bc 19 c2 3c bc 46 17 c7 bc ae 9a a8 3b
       -0.019132007 -0.011520886 -0.02430309 0.0051453924
0003d0 63 aa f7 bb 0f 62 36 3b 8f 68 01 3c ea 23 f0 3a
       -0.0075581535 0.0027829444 0.007898464 0.001832125
0003e0 23 b0 60 bc 66 25 9c 3b b4 61 56 ba 1e 71 eb ba
       -0.013713869 0.0047652004 -0.0008178011 -0.0017962789
0003f0 59 d9 65 bc 0a c3 41 3a 14 67 a6 bb 8b 15 9f bc
       -0.0140288705 0.0007391429 -0.005078206 -0.019419452

fc1.bias f4 [64]
000000 56 95 85 bc d8 b2 66 3a 42 e8 78 3d 5a 26 e6 3c
       -0.01630656 0.00088004535 0.060768373 0.02809446
000010 e5 9b af bc e9 d2 b1 bc ff 1c 29 3c 31 45 57 bc
       -0.021436641 -0.021707015 0.010321855 -0.013139055
000020 2a 3d c8 bc 77 2f 75 3d 4d f7 71 bc 3b ec a6 3d
       -0.024443228 0.05985972 -0.014768434 0.08150526
000030 61 3e 2c 3c da ed f6 3c 79 27 c7 3d 8a 6b 54 bd
       0.010512919 0.030142713 0.09724326 -0.05186037
000040 09 7b 54 3b fa e5 78 bc 37 9e 2a 3d ae a5 5b 3b
       0.0032421967 -0.015191549 0.04165479 0.00335155
000050 41 a1 9a 3b dd 99 00 3c a5 a2 64 bc db c8 21 3c
       0.00471893 0.007849184 -0.013954793 0.009874548
000060 e8 61 60 bc 5b 3b 30 3c fa 6a 48 bd ac 6f e1 bc
       -0.013695218 0.010756339 -0.048930146 -0.02751907
000070 29 52 68 bd fc d3 09 bc 63 26 97 3c 65 d0 b8 3d
       -0.05671898 -0.008412357 0.018450921 0.09024123
000080 c2 de 9b bc 2e ce b1 bb 8c 13 e8 3d a8 83 cf bc
       -0.019027118 -0.00542619 0.11331853 -0.025331333
000090 1d 24 5d 3c 29 8a 40 3d 3a a3 95 bc a9 e4 73 bc
       0.01349738 0.04700676 -0.018266309 -0.01488606
0000a0 f7 3f 35 3c 05 8f 94 3d f1 56 8d 3b ac 1a 3c 3b
       0.011062614 0.07253841 0.0043133427 0.002870242
0000b0 05 13 53 3b af d6 10 bc a9 fb b3 bd cb 10 89 bc
       0.0032207381 -0.008840247 -0.08788235 -0.01673164
0000c0 ea c0 df 3d ff 4c 61 3c 4b 8f 86 bd 48 f2 e8 b9
       0.10925467 0.013751267 -0.065703 -0.00044431002
0000d0 41 1d 38 bd 20 16 73 3d c4 21 a8 bc ec d9 a4 3b
       -0.044949774 0.059347272 -0.020523913 0.005030861
0000e0 2b ce a1 bd 13 59 d6 3d 7d 5d fc 3d e2 e1 b6 bd
       -0.079006515 0.10466208 0.12322519 -0.089298025
0000f0 fe cd 8f bb ad 79 dd 3d 34 79 01 bb 3d 5b 48 3c
       -0.00438857 0.108142234 -0.001975608 0.012228784

fc2.weight f4 [16, 64]
000000 53 99 15 bd 4c d9 de 3d 74 ce 91 3d 23 aa 19 3e
       -0.036523174 0.1088129 0.07119456 0.15006308
000010 a5 56 eb bd c6 c6 aa bd 41 7c 18 3d eb 53 1b 3d
       -0.114911355 -0.08338694 0.037227873 0.037921827
000020 7a 76 30 3d d5 40 83 bd 7c 3b e4 3d 34 59 ee 3d
       0.043081738 -0.0640885 0.11144158 0.11638108
000030 f2 39 2f 3e d6 92 a1 3e 19 ff 92 3d d1 31 2c bd
       0.17111948 0.3155734 0.07177562 -0.042039696
000040 9e b1 d9 bd be 4e 84 3d 28 89 b4 3d 9a f2 a9 3d
       -0.10629581 0.064603314 0.08815223 0.08298226
000050 70 bc d2 3d 3b 19 ed 3d e3 b6 b4 bd 7f e3 5e 3d
       0.10289848 0.11577078 -0.088239454 0.054416176
000060 9e bd d9 bd 6e 6f e4 bd 81 e1 a6 3d 58 99 96 bd
       -0.1063187 -0.11154066 0.0814848 -0.07353467
000070 a6 2b 1d bd 35 c8 ed 3d ca 98 17 3e f8 4b e3 3d
       -0.038371705 0.11610452 0.14804378 0.11098474
000080 c0 14 cb bd 1c a5 bb bc b3 d6 7b 3d e6 08 ba b9
       -0.09916067 -0.022905879 0.06148405 -0.00035483314
000090 21 fd 0f bc e9 89 81 3d c3 43 bd 3b e6 9d 15 3d
       -0.008788378 0.063251324 0.0057759 0.036527537
0000a0 2b db e1 3d 34 4a f4 3d 31 87 87 3d 98 83 a0 bd
       0.11028131 0.119282156 0.066175826 -0.078375995
0000b0 38 7a 2f 3d 4b ef ba bc 32 2b fb 3d cb 5b f9 bd
       0.042841166 -0.022819182 0.12264098 -0.12175711
0000c0 7a 2d af bb 4d 1d 36 3d 81 96 1e bd b5 b8 ef bc
       -0.0053459974 0.044461537 -0.03871775 -0.02926288
0000d0 32 b6 ea bd 16 ed 84 3d 80 43 09 ba 1d 2f 1c 3e
       -0.11460532 0.06490533 -0.00052361935 0.15252347
0000e0 d9 f6 18 be ce c5 e2 3b b3 34 3b 3d 47 27 53 3d
       -0.14937915 0.006920553 0.045704555 0.05155113
0000f0 90 7d 4c bd 2d bf 8e 3d 15 a1 a9 3d 75 be 50 bd
       -0.049924433 0.06970058 0.08282677 -0.050962884
000100 7a 75 a3 3d 50 52 72 bc 87 3c 59 3d 7c 10 86 3d
       0.07981391 -0.014790133 0.05303624 0.06546113
000110 58 b1 12 3d 66 bc ba 3d 78 31 76 bd 0c 75 a8 3d
       0.03581366 0.091179654 -0.06010577 0.0822545
000120 50 af 94 3c c3 8d ca 3d b0 ed 5a bd 15 04 82 3d
       0.018150002 0.0989032 -0.053449333 0.06348435
000130 61 92 4a bd 05 fe 70 3d bd 94 6e 3d bb c2 d1 bc
       -0.049456004 0.058836002 0.058247317 -0.02560555
000140 70 62 7d bc b0 35 da bc c9 ec a2 bc 40 a3 57 bd
       -0.015465364 -0.026636928 -0.019888299 -0.05264592
000150 78 81 b6 bd ca c3 99 bd fc dd a4 bd 68 90 ca 3c
       -0.08911413 -0.07508047 -0.08050153 0.024727061
000160 8c 43 75 3d 3c 5a 02 3d 91 41 e2 3c b8 78 f4 3d
       0.05987887 0.031824335 0.027619155 0.11937088
000170 b7 d6 d6 3d 34 5a 95 b8 de c2 f9 bd 91 0d 96 3d
       0.10490172 -7.121675e-05 -0.12195371 0.07326806
000180 20 fb 3a 3d c0 d7 34 3b 46 7e ac bd 8b 76 c8 3d
       0.045649648 0.0027594417 -0.08422522 0.09788235
000190 48 a4 a4 bc 88 67 00 bd 70 0c 8e 3d 7a f8 ff 3d
       -0.020097867 -0.031348735 0.06935966 0.12498565
0001a0 08 85 25 3d 18 0f 81 bd 70 83 a0 bc c0 df 5b bb
       0.04041007 -0.06301707 -0.019593924 -0.0033550113
0001b0 80 47 8f 3b dc 03 e2 3d 7c 53 f1 3d 32 91 a0 3d
       0.004372537 0.11035892 0.117835015 0.07840194
0001c0 ab 1b ad bd 60 61 3c bc 4a 44 83 bd d4 4f 65 3d
       -0.08452543 -0.011497825 -0.064095095 0.055984333
0001d0 7a e2 90 bc 49 6c 03 be e6 ef ac 3d 91 f6 ef bc
       -0.017686117 -0.12834276 0.084441945 -0.029292377
0001e0 26 b4 83 3c 80 e8 93 3d aa da a4 bd c8 fc 1a 3d
       0.016077112 0.0722208 -0.08049519 0.037838727
0001f0 f0 2c b6 3c ae 66 2e 3c 40 8e 99 3c ec e5 40 bd
       0.022238225 0.010644598 0.018744588 -0.04709427
000200 5e cc 68 3d 5c 96 cd 3d 01 b1 5a 3d 2a 20 56 3e
       0.056835525 0.100384444 0.05339146 0.20910707
000210 53 07 2a bc cf 0b e2 3d 8e cf 72 bd 44 bb e1 bd
       -0.010377723 0.110374086 -0.05927997 -0.11022046
000220 6c 2e b7 bb 09 57 55 bd bf f8 bf bd 26 c9 ca bc
       -0.0055902507 -0.052084956 -0.093736164 -0.024754118
000230 6b 50 e1 bd 90 16 f2 3d 32 e2 af bd 20 f7 8c bd
       -0.11001667 0.1182071 -0.08588065 -0.06883073
000240 07 76 68 3d b3 6b 5b bd 20 ea c0 bd 07 b4 49 3d
       0.056753185 -0.053569507 -0.09419656 0.049243953
000250 06 32 45 3d f5 db 72 3d 03 98 96 3d 2f e7 d5 ba
       0.04814341 0.0592918 0.07353213 -0.0016319508
000260 fc a9 70 bd c4 f7 1a bc 66 09 fc 3d 52 01 bb bd
       -0.05875586 -0.009458486 0.1230648 -0.09131111
000270 5a 39 36 bd c1 2d b6 bc 5a f6 08 3e f3 0f a7 bc
       -0.04448829 -0.022238614 0.13375226 -0.020393347
000280 a5 1c 34 bd d1 a5 7e 3d af d7 a5 3d cc b2 7e bd
       -0.04397263 0.062169854 0.08097779 -0.062182233
000290 b2 67 a0 bd 55 4e 89 bd 26 38 91 bd b0 1a 50 bd
       -0.07832278 -0.06704394 -0.070907876 -0.0508067
0002a0 45 bf 10 3c 38 a5 88 3d e6 c2 59 bd a1 d5 88 3d
       0.008834665 0.06672138 -0.053164385 0.066813715
0002b0 6e a3 72 3d 4f ff ac bc af 3c 90 bd 97 31 86 bd
       0.05923789 -0.021117834 -0.070428245 -0.06552427
0002c0 d6 85 a3 3d e9 5f 06 3c 0a de a8 bc e6 e2 f4 bc
       0.079845116 0.008201578 -0.020613689 -0.02989335
0002d0 57 e1 13 3e 9f 10 06 3e c1 9f 46 bd ec ce a5 bd
       0.14441429 0.13092278 -0.048492197 -0.08096108
0002e0 05 d5 65 3d 4a 6a 52 bc f1 2d 11 3d 7d aa cf bc
       0.056111354 -0.012842724 0.035444204 -0.02534985
0002f0 ee e2 ed bd ec 69 f8 3d 5a 58 08 bd 65 42 f6 3d
       -0.11615549 0.12129578 -0.033287384 0.120243825
000300 42 2e f0 3d e0 c6 c8 3d b5 d9 55 bc 6f 77 09 be
       0.11727573 0.098035574 -0.013052394 -0.13424467
000310 19 ad a7 3c c7 e2 aa 3b f4 41 d4 3d ec 8c 7f bd
       0.020468282 0.0052150222 0.10364142 -0.062390253
000320 22 59 ae 3c 07 07 77 bd 80 9a d8 bd df 89 ce 3c
       0.021282736 -0.060309436 -0.105763435 0.025212226
000330 b9 da d3 bc 17 d3 22 3d 50 fc 47 3d 71 78 53 bc
       -0.025861131 0.039752092 0.04882461 -0.012907133
000340 43 da 82 3d 33 aa a4 3d 11 d3 03 3d c2 25 98 bd
       0.06389286 0.080402754 0.03218371 -0.07429077
000350 1b b8 b1 3c 77 b7 e3 3d 48 08 8c 3d 38 26 7c bd
       0.021694234 0.111189775 0.06837517 -0.061559886
000360 42 2a 89 bd 61 c0 ed 3d d2 d6 a7 3d d2 4c d4 bd
       -0.06697513 0.11608959 0.081952706 -0.10366215
000370 55 24 c3 bc 6b fd e2 bc 33 bd 0f be 15 ee 72 bc
       -0.023821035 -0.02770873 -0.14037018 -0.014827271
000380 b2 0c c4 bc 2c a8 9c 3d d4 41 fb 3c 72 ee 9f bd
       -0.023931835 0.07649264 0.030671038 -0.07809152
000390 48 e4 05 bd b2 59 e5 3c 47 5e 19 3d 58 05 af 3d
       -0.03268841 0.027996872 0.037443426 0.08545941
0003a0 23 a8 a9 3c 2b d5 48 3d c9 44 19 37 7b 00 61 bc
       0.020710057 0.049031418 9.135526e-06 -0.013733025
0003b0 9e c8 ca bd 56 b1 c4 3d 7c 4a f4 bd 1e 6c fe bd
       -0.09901546 0.09604137 -0.11928269 -0.124229655
0003c0 15 53 da bd 2a b4 d1 bd c1 9e 07 bd 3d a1 d2 3d
       -0.10660378 -0.10239442 -0.033110384 0.1028466
0003d0 64 eb b3 bd e4 59 55 3d 4e 51 f9 3d 75 b6 99 bd
       -0.087851316 0.05208768 0.12173711 -0.07505504
0003e0 ee f5 dd bd a2 ca cb bd 3c 8d 88 bd 86 12 ff bd
       -0.10837923 -0.099507585 -0.06667563 -0.12454705
0003f0 38 aa b9 bd a5 67 a4 bc a0 de 82 3d 0c b6 b6 bd
       -0.0906567 -0.020068953 0.063901186 -0.089214414

fc2.bias f4 [16]
000000 22 4d 10 3c d7 e2 d3 bd 41 75 09 3d 5a 0f a7 3d
       0.008807452 -0.10346001 0.033559088 0.08157225
000010 8e dc f3 3d 57 f8 a8 bd 37 ae 14 3d 19 c4 c9 ba
       0.11907302 -0.08250492 0.036298957 -0.0015393525
000020 0f 08 4f bd 33 a0 56 be 18 83 cb bc 96 3f db bd
       -0.050544795 -0.20959549 -0.024842784 -0.107054874
000030 5d be 90 3d 1b 91 a8 3c 00 f3 57 3d 13 de c2 3c
       0.07067559 0.020577004 0.052721977 0.023787534

fc3.weight f4 [3, 16]
000000 ea 10 27 be 6a e5 80 3e 06 8f 10 be 84 19 1f 3d
       -0.16315046 0.2517503 -0.14117059 0.038842693
000010 25 8f 7c 3b 6d a7 ea bd 5f b7 8c 3d 64 1b 26 3e
       0.003853747 -0.11457715 0.06870913 0.16221386
000020 a4 61 e0 bd 98 a6 00 be 7b c3 ba bd 12 f5 13 3e
       -0.109561235 -0.1256355 -0.09119316 0.14448956
000030 6c 65 9d 3d 8a b5 4e be a1 22 5e 3e 6d ad 1c bd
       0.0768536 -0.20186439 0.21692897 -0.03825133
000040 9e a4 37 bd 58 1a 19 3e 72 ba 3e 3c 6f ae 09 bd
       -0.044834726 0.14951456 0.011641132 -0.03361362
000050 4b e3 17 be 29 4a 56 be b1 6b 19 be 0f aa 6a 3e
       -0.14832799 -0.20926727 -0.14982487 0.22916435
000060 42 4b 05 be 98 61 69 3e bd 83 df bd 60 9f 0c be
       -0.1301699 0.22791135 -0.10913799 -0.13732672
000070 4d 72 bd bd 66 cf 4a 3e 55 3c 09 be 23 1b f0 bd
       -0.09250317 0.19805679 -0.13401921 -0.11723926
000080 eb 18 c7 bd 63 52 44 be 61 19 0c 3e c8 70 18 3e
       -0.097215496 -0.19172053 0.13681556 0.14886773
000090 f1 85 82 bb f9 5b a3 3c 44 b2 08 3e f9 e8 0c 3e
       -0.003983252 0.019941317 0.13349253 0.13760747
0000a0 d8 37 62 be 2a d7 8f bd 61 64 52 3e d8 b2 65 3e
       -0.22091615 -0.07023461 0.20546104 0.22431505
0000b0 76 99 02 be 76 82 49 3e c7 23 b1 bd fa f1 7d 3e
       -0.12753853 0.19678673 -0.08649402 0.24799338

fc3.bias f4 [3]
000000 7a a1 0d 3e 11 db 34 bd a5 dc 9f 3b
       0.1383113 -0.04415423 0.004878598
