doc/dc_net.pth (torch, 40894 bytes, 6 tensors)

conv1.weight f4 [12, 3, 3, 3]
-0.024931345 0.030311378 0.04045152 0.11268712 -0.06536175 0.075032875 -0.16249822 -0.06371634
-0.1567436 0.17313042 0.014408065 -0.047553133 -0.108080536 -0.16711567 -0.0083374 0.103153355
0.111641176 -0.024926262 0.082353964 -0.18125685 0.058036342 0.12157487 -0.18982053 -0.048231464
0.07560622 0.06514252 -0.085598335 0.16490532 0.11580571 0.06001036 0.05699044 0.084806465
0.12682423 -0.077486634 0.03180428 0.16330096 -0.036563493 -0.13078126 -0.02855728 0.14210156
-0.2017787 -0.18237767 -0.09106928 -0.1713665 0.019416053 -0.020874068 0.13673364 -0.03538483
-0.15450972 -0.0018174952 -0.10317434 -0.12679738 0.18238315 -0.15512307 -0.019035827 -0.0034489331
0.10979821 0.118965596 0.08792962 -0.07276087 -0.043767955 0.119635925 0.023365006 0.031814042
-0.13762918 -0.011530785 -0.11786168 0.030002683 -0.07859382 0.005001576 -0.1911682 0.008163783
-0.194217 -0.12029097 -0.008833756 -0.13243514 -0.22075711 0.037805747 -0.05727554 -0.0031613535
0.012996451 0.11889812 -0.054770157 -0.15535149 -0.12849835 -0.18514936 -0.21691623 -0.036791284
-0.13720545 0.055158705 0.073998794 -0.14743575 -0.05238125 0.23500198 -0.025133446 0.12209169
0.0906333 0.10848286 0.111442104 -0.11282618 0.12261892 -0.08746084 0.07081084 -0.076933324
0.08520101 0.09383247 -0.13111772 0.17888007 -0.22986417 0.041430563 0.00911582 -0.036180336
0.07405049 -0.02191741 0.085060015 -0.03525911 -0.16226684 0.0114276465 0.08406372 0.04514167
-0.12881812 -0.00966484 -0.061120134 0.16675775 -0.06268048 0.000703214 0.075876445 0.09072306
-0.16020723 -0.19313468 -0.113286406 0.015278261 -0.12595434 -0.0074866214 -0.17374437 -0.14221877
-0.0054147406 0.043704584 -0.017664379 0.114296354 -0.21341774 -0.19791049 0.0097553395 0.14648035
-0.08336879 0.06461688 0.05558554 -0.17238994 -0.019178763 -0.23271395 -0.13043876 -0.14172085
0.105542764 0.054946456 0.1188378 0.030666253 0.16869825 0.044063024 0.23281357 -0.03738111
0.035801973 -0.07801146 -0.017741544 0.09345724 0.057709582 0.026115762 0.042729612 0.13023087
-0.0012519162 0.14310949 0.039239656 -0.09655106 -0.058513366 -0.043143455 -0.0053966455 0.08537891
-0.08732597 0.108857505 0.2081308 0.013781396 -0.05768802 0.03772005 0.081104375 0.052282184
0.008712931 -0.14933385 0.08198479 -0.16113424 -0.12107634 -0.11132727 0.14589822 0.04587921
0.16946857 0.03834414 0.16584472 -0.06880965 -0.098799735 -0.14379257 -0.11036795 0.13289066
0.19452116 0.081503734 0.014675833 0.18712978 -0.12816869 0.10583757 0.13077502 -0.19800386
-0.22182198 -0.10421817 -0.20487197 0.051247496 -0.023880145 0.15462317 0.077410035 -0.1635114
-0.0068659093 0.13203554 -0.08592641 0.04451975 0.15045646 0.19178814 0.06037959 0.003959771
-0.11166634 0.031126786 -0.012092188 -0.12541975 -0.12275288 -0.04391397 0.063950285 -0.117725834
0.12488645 0.20841706 -0.0025620617 -0.03862274 -0.045923404 -0.1881193 0.1529052 -0.14781347
-0.22032905 0.019063773 -0.04543696 -0.04802719 -0.0084629785 -0.1074008 0.098298356 -0.1962356
0.018684385 0.09988318 0.05478269 -0.20898071 -0.040189732 -0.020919388 -0.021695072 0.08130115
00000000: d23c ccbc 914f f83c 7eb0 253d 81c8 e63d
00000010: 62dc 85bd d6aa 993d ef65 26be b67d 82bd
00000020: 6581 20be 1a49 313e ce0f 6c3c 13c7 42bd
00000030: 5459 ddbd 5f20 2bbe 9799 08bc 1142 d33d
00000040: 21a4 e43d 2932 ccbc 32a9 a83d 659b 39be
00000050: 84b7 6d3d 3ffc f83d 5060 42be 5b8e 45bd
00000060: 6fd7 9a3d 7169 853d 2e4e afbd f1dc 283e
00000070: 8b2b ed3d 6ccd 753d cf6e 693d 03af ad3d
00000080: 36de 013e 50b1 9ebd 3445 023d 5e38 273e
00000090: 9ac3 15bd 86eb 05be f5f0 e9bc 1283 113e
000000a0: 139f 4ebe 36c1 3abe 8882 babd b37a 2fbe
000000b0: 6a0e 9f3c 1800 abbc e703 0c3e afef 10bd
000000c0: cc37 1ebe 0539 eeba 124d d3bd 2cd7 01be
000000d0: a6c2 3a3e 95d8 1ebe 06f1 9bbc 7f07 62bb
000000e0: e2dd e03d 3ca4 f33d 7214 b43d a703 95bd
000000f0: 0746 33bd ae03 f53d f867 bf3c 714f 023d
00000100: aaee 0cbe 9eeb 3cbc 7761 f1bd 30c8 f53c
00000110: ccf5 a0bd 43e4 a33b 99c1 43be 63c1 053c
00000120: d2e0 46be 1d5b f6bd 75bb 10bc 149d 07be
00000130: 270e 62be 33da 1a3d c299 6abd b62e 4fbb
00000140: 11ef 543c dc80 f33d ac56 60bd 7614 1fbe
00000150: 1295 03be cb97 3dbe 4a1f 5ebe 75b2 16bd
00000160: 967f 0cbe 18ee 613d ae8c 973d 66f9 16be
00000170: b98d 56bd 5ca4 703e a8e4 cdbc 350b fa3d
00000180: f49d b93d 432c de3d c23b e43d 6a11 e7bd
00000190: a11f fb3d ab1e b3bd 4605 913d 388f 9dbd
000001a0: de7d ae3d 3d2b c03d b943 06be 562c 373e
000001b0: 8361 6bbe 18b3 293d 855a 153c d531 14bd
000001c0: c9a7 973d 248c b3bc f233 ae3d db6b 10bd
000001d0: 4729 26be 063b 3b3c 9a29 ac3d 79e6 383d
000001e0: e6e8 03be 4759 1ebc 1b59 7abd 8bc2 2a3e
000001f0: a05e 80bd e557 383a 1c65 9b3d 03cd b93d
00000200: 5d0d 24be 19c5 45be b402 e8bd ac51 7a3c
00000210: 2dfa 00be 5552 f5bb 0bea 31be cca1 11be
00000220: 236e b1bb 9403 333d e3b4 90bc 3514 ea3d
00000230: 2e8a 5abe 0ca9 4abe dcd4 1f3c f2fe 153e
00000240: 42bd aabd db55 843d aaad 633d fd86 30be
00000250: c81c 9dbc 914c 6ebe bd91 05be 451f 11be
00000260: ce26 d83d 890f 613d 3c61 f33d cb37 fb3c
00000270: 3cbf 2c3e 6e7b 343d ae66 6e3e ef1c 19bd
00000280: 17a5 123d 79c4 9fbd b756 91bc 8266 bf3d
00000290: e260 6c3d b9f0 d53c 3f05 2f3d 3e5b 053e
000002a0: 5617 a4ba 4b8b 123e c3b9 203d 90bc c5bd
000002b0: b6ab 6fbd 31b7 30bd 58d6 b0bb 23db ae3d
000002c0: f5d7 b2bd aff0 de3d 3e20 553e 5dcb 613c
000002d0: 464a 6cbd 5780 1a3d 0d1a a63d d825 563d
000002e0: aec0 0e3c f9ea 18be a4e7 a73d 6000 25be
000002f0: dff6 f7bd 8dff e3bd 5866 153e d7eb 3b3d
00000300: 2b89 2d3e bf0e 1d3d 33d3 293e 13ec 8cbd
00000310: 8457 cabd 5c3e 13be 9708 e2bd 7d14 083e
00000320: 8e30 473e 6eeb a63d e872 703c f39e 3f3e
00000330: a73e 03be 5ec1 d83d e3e9 053e 86c1 4abe
00000340: 4d25 63be 5670 d5bd f5c9 51be e5e8 513d
00000350: 4ba0 c3bc 8955 1e3e 2789 9e3d 886f 27be
00000360: 6cfb e0bb 5334 073e 30fa afbd 575a 363d
00000370: 4211 1a3e 1c64 443e 9750 773d f7c0 813b
00000380: 52b1 e4bd 9afd fe3c 501e 46bc 096e 00be
00000390: dd65 fbbd 23df 33bd 5ef8 823d 3e1a f1bd
000003a0: 78c4 ff3d 486b 553e 43e8 27bb e132 1ebd
000003b0: 2e1a 3cbd 59a2 40be 2e93 1c3e 6a5c 17be
000003c0: f09d 61be a12b 9c3c 1b1c 3abd 29b8 44bd
000003d0: 4ea8 0abc f3f4 dbbd a650 c93d fcf1 48be
000003e0: ff0f 993c 8d8f cc3d d063 603d 0aff 55be
000003f0: fd9d 24bd 235f abbc ddb9 b1bc 3881 a63d

conv1.bias f4 [12]
0.2743013 0.24344221 0.037255894 -0.08870094 0.15611412 0.0898332 -0.1826122 -0.07107334
-0.18797871 0.13996619 -0.010091176 -0.25228402
00000000: 3871 8c3e ea48 793e a399 183d d7a8 b5bd
00000010: 61dc 1f3e 78fa b73d b1fe 3abe e68e 91bd
00000020: 7e7d 40be 4c53 0f3e 7655 25bc 5f2b 81be

fc1.weight f4 [12, 768]
0.16625689 0.18658721 0.15629493 0.19393104 0.18436478 0.1297897 0.1710626 0.17598666
0.121539116 0.12523374 0.11051426 0.15797804 0.13600259 0.13861123 0.12538728 0.15403187
0.1793269 0.101884745 0.13597266 0.15686318 0.15920043 0.12469971 0.13224071 0.12044133
0.1217812 0.16252372 0.12938115 0.086661704 0.08358295 0.096083164 0.12807785 0.16260457
0.12887698 0.07828628 0.12205697 0.18257843 0.14106698 0.12793997 0.08406848 0.08358228
0.16256756 0.16026483 0.11280136 0.1400719 0.06381357 0.124281704 0.1159599 0.14341153
0.15210323 0.117490396 0.109232344 0.0744684 0.10341176 0.121293955 0.13685392 0.11665407
0.16166203 0.13797192 0.11216782 0.16925392 0.13723136 0.09648802 0.14062291 0.13317177
0.118217215 0.04270301 0.023144681 0.0064415755 -0.0050526336 -0.01401854 0.0046973643 0.020347103
0.04201469 0.039262213 0.04106634 0.0559242 0.010832372 0.043530047 -0.0038189325 0.055089004
0.033671953 0.044551913 0.036703214 -0.018282315 -0.024856316 -0.010346063 0.005513955 0.0013019964
0.011745708 0.004309024 0.07914815 0.0043557193 0.010930044 0.023784323 -0.011525638 0.033218488
0.024329618 -0.032381613 0.0468568 0.08715957 0.057512835 0.051865608 0.0009341455 0.057272207
0.027578793 0.04976305 -0.013651521 0.06164265 0.0287929 0.055775717 0.05765301 0.047923192
0.053358704 -0.01428413 0.053621035 0.04113653 -0.01138122 0.05288728 0.04688168 0.010871005
0.06111712 0.01478362 0.057344895 0.03888343 0.009434322 0.040442858 0.030098604 0.047435574
0.0045039468 0.024811713 -0.0005946532 -0.019569192 -0.046258017 0.033851046 -0.026459478 0.013279757
0.01912312 0.008155592 0.0069933645 0.033324327 0.025675558 0.0054887775 0.0063731438 -0.0049948986
0.04750206 0.032287408 0.057163335 -0.05059804 -0.015818266 0.03393769 -0.007507244 0.003512217
-0.02253926 -0.05269706 0.036276314 0.0073505305 -0.03015741 -0.01164612 0.026957102 -0.025119767
0.041140586 -0.015094122 -0.0140292775 0.02096025 0.020775596 0.0023002613 0.023128806 0.02821738
0.04497561 0.011550868 0.071224846 0.007337583 0.014475999 0.02849688 0.04143475 0.085917905
0.007295651 0.026432533 0.054894835 0.038099054 -0.015088012 0.022177268 0.03238145 0.0783083
0.06614651 0.019647485 0.076748006 -0.001198815 0.03012725 -0.00083928386 -0.011478253 0.017471617
-0.008550286 -0.00980621 0.033376634 0.059446786 0.0006553011 -0.004568643 0.011336611 0.0021881287
-0.063196324 0.036441233 0.029732259 -0.01997408 0.023947258 0.027268907 0.08954948 -0.013902731
0.018689942 0.14341961 0.010496186 -0.035781257 0.11785247 0.076724686 0.07123425 0.11541617
0.18036935 -0.013563635 -0.022811044 0.041289356 0.033317294 0.039734997 0.115976244 0.06556515
0.052519023 0.049203612 0.08672594 0.01789013 0.024899563 0.05707842 0.12615189 0.14119798
0.02410915 -0.013848568 -0.011348854 0.0733871 0.011477642 0.08560856 0.04891094 0.09445047
-0.008110954 0.032265104 -0.07038993 -0.005056681 0.019687295 0.06366505 -0.07641754 0.0029926146
0.050093755 0.035517193 0.036798913 -0.02404358 -0.017418073 -0.053873025 -0.04096528 0.08198224
00000000: 3f3f 2a3e b810 3f3e c70b 203e dc95 463e
00000010: 1fca 3c3e 97e7 043e 092b 2f3e d935 343e
00000020: 80e9 f83d 463d 003e 4d55 e23d ffc4 213e
00000030: 4344 0b3e 1af0 0d3e 8665 003e 88ba 1d3e
00000040: 79a1 373e f3a8 d03d 6b3c 0b3e bea0 203e
00000050: 7005 233e 9062 ff3d 1c6a 073e f2a9 f63d
00000060: 6c68 f93d 9e6c 263e 7e7c 043e b17b b13d
00000070: 8a2d ab3d 40c7 c43d d726 033e d081 263e
00000080: 54f8 033e 8f54 a03d 01f9 f93d d7f5 3a3e
00000090: dd73 103e b202 033e 182c ac3d 302d ab3d
000000a0: 1c78 263e 771c 243e 6604 e73d 026f 0f3e
000000b0: b0b0 823d 6887 fe3d 627c ed3d 79da 123e
000000c0: f3c0 1b3e ce9e f03d 35b5 df3d e382 983d
000000d0: 8bc9 d33d f768 f83d 6f23 0c3e 54e8 ee3d
000000e0: bb8a 253e 8348 0d3e 3eb8 e53d e650 2d3e
000000f0: 6186 0c3e 839b c53d 74ff 0f3e 2e5e 083e
00000100: de1b f23d 5ae9 2e3d ea99 bd3c da13 d33b
00000110: 9090 a5bb 05ae 65bc 59ec 993b f8ae a63c
00000120: 9817 2c3d 6ad1 203d 2e35 283d c610 653d
00000130: 437a 313c 904c 323d 0e47 7abb 02a5 613d
00000140: 9aeb 093d 117c 363d 1c56 163d cbc4 95bc
00000150: 799f cbbc 8982 29bc 68ae b43b c0a7 aa3a
00000160: 1271 403c b732 8d3b 6d18 a23d 6cba 8e3b
00000170: ed13 333c 57d7 c23c 08d6 3cbc 1c10 083d
00000180: e84e c73c 95a2 04bd eaec 3f3d b780 b23d
00000190: 9492 6b3d 0871 543d 71e1 743a 4396 6a3d
000001a0: ecec e13c 57d4 4b3d a1aa 5fbc 017d 7c3d
000001b0: 16df eb3c 1475 643d 9025 6c3d 1c4b 443d
000001c0: a88e 5a3d fc07 6abc bba1 5b3d c77e 283d
000001d0: 4c78 3abc 55a0 583d 0107 403d 4d1c 323c
000001e0: f255 7a3d ff36 723c 7be2 6a3d 3b44 1f3d
000001f0: 6a92 1a3c 69a7 253d 5991 f63c ce4b 423d
00000200: d895 933b ef41 cb3c 80e2 1bba 924f a0bc
00000210: 0c79 3dbd 65a7 0a3d 8cc1 d8bc 5793 593c
00000220: 17a8 9c3c 089f 053c 9828 e53b 177f 083d
00000230: 8c55 d23c 34db b33b ced5 d03b 3fac a3bb
00000240: 8591 423d cd3f 043d 1a24 6a3d e43f 4fbd
00000250: 4f95 81bc 3f02 0b3d 54ff f5bb 392d 663b
00000260: 41a4 b8bc dfd8 57bd 7996 143d b8dc f03b
00000270: ac0c f7bc 5ecf 3ebc 24d5 dc3c f8c7 cdbc
00000280: 0883 283d 564d 77bc 0edb 65bc d5b4 ab3c
00000290: 9531 aa3c fbbf 163b 9f78 bd3c 2328 e73c
000002a0: 5838 383d da3f 3d3c 55de 913d 1c70 f03b
000002b0: be2c 6d3c 4a72 e93c 7cb7 293d baf5 af3d
000002c0: 5b10 ef3b 0a89 d83c 68d9 603d c10d 1c3d
000002d0: b633 77bc 1aad b53c 69a2 043d 1a60 a03d
000002e0: d277 873d c3f3 a03c 0f2e 9d3d 8e21 9dba
000002f0: 6ccd f63c 6303 5cba 480f 3cbc a320 8f3c
00000300: 8016 0cbc 3aaa 20bc f0b5 083d 797e 733d
00000310: 83c8 2b3a 8eb4 95bb 31bd 393c b566 0f3b
00000320: 136d 81bd 6743 153d 1191 f33c afa0 a3bc
00000330: 0a2d c43c 0b63 df3c b865 b73d 48c8 63bc
00000340: a61b 993c 97dc 123e 32f8 2b3c 5e8f 12bd
00000350: a35c f13d d521 9d3d 43e3 913d 505f ec3d
00000360: beb2 383e 023a 5ebc 3ade babc 071f 293d
00000370: b777 083d 2ac1 223d f484 ed3d 0547 863d
00000380: 301e 573d ba89 493d 5f9d b13d 528e 923c
00000390: 2bfa cb3c 10cb 693d f62d 013e 3496 103e
000003a0: 8d80 c53c 1be5 62bc 8bf0 39bc fa4b 963d
000003b0: b80c 3c3c 8a53 af3d d656 483d 3f6f c13d
000003c0: cfe3 04bc 6a28 043d 9828 90bd 84b2 a5bb
000003d0: 4047 a13c d262 823d cd80 9cbd be1f 443b
000003e0: 1c2f 4d3d 7a7a 113d 75ba 163d 0bf7 c4bc
000003f0: 59b0 8ebc f6a9 5cbd 36cb 27bd 4ee6 a73d

fc1.bias f4 [12]
0.12335203 -0.013183934 -0.0041860426 -0.015377829 -0.016410848 0.09483294 0.11351432 -0.037907142
0.10476091 0.07131166 -0.030087957 -0.037691705
00000000: fd9f fc3d 6d01 58bc 122b 89bb 4af3 7bbc
00000010: 0b70 86bc c637 c23d 327a e83d 8544 1bbd
00000020: e38c d63d d90b 923d 057b f6bc 9e62 1abd

fc2.weight f4 [3, 12]
-0.22034837 0.041926302 -0.097131886 -0.050045606 0.12387308 -0.2817749 -0.08074789 0.29673854
0.20470965 0.027825862 -0.1056338 0.0611983 -0.05826081 -0.11935033 0.21410523 0.27227557
0.2361587 0.24576892 -0.19307476 0.28446704 -0.20828226 -0.20738652 -0.07853365 0.1575592
-0.10915955 0.2509109 0.232975 0.18409574 -0.2820442 -0.23145714 -0.1825658 0.027364504
-0.13154456 0.16437961 0.10656653 0.25777715
00000000: 01a3 61be eaba 2b3d 15ed c6bd 9ffc 4cbd
00000010: 2bb1 fd3d cd44 90be 265f a5bd 1dee 973e
00000020: 689f 513e 10f3 e33c 8956 d8bd 12ab 7a3d
00000030: e3a2 6ebd f26d f4bd 673e 5b3e b467 8b3e
00000040: 96d3 713e d9aa 7b3e 64b5 45be aaa5 913e
00000050: f247 55be 225d 54be 40d6 a0bd 3357 213e
00000060: 0b8f dfbd 6577 803e 0091 6e3e 9883 3c3e
00000070: 1968 90be 1a03 6dbe 87f2 3abe 862b e03c
00000080: 9eb3 06be 2153 283e 8e3f da3d 5efb 833e

fc2.bias f4 [3]
-0.28488886 -0.3046645 0.13409685
00000000: f4dc 91be fcfc 9bbe af50 093e
